…
fa5-ded5-27e62c4eb1e5"},"execution_count":13,"outputs":[{"output_type":"stream","name":"stderr","text":["Some weights of BertModel were not initialized from the model checkpoint at /content/drive/MyDrive/Models/model-bert-base-arabertv2 and are newly initialized: ['bert.pooler.dense.bias', 'bert.pooler.dense.weight']\n","You should probably TRAIN this model on a down-stream task to be able to use it for predictions and inference.\n"]},{"output_type":"execute_result","data":{"text/plain":["BERTClass(\n","  (bert_model): BertModel(\n","    (embeddings): BertEmbeddings(\n","      (word_embeddings): Embedding(64000, 768, padding_idx=0)\n","      (position_embeddings): Embedding(512, 768)\n","      (token_type_embeddings): Embedding(2, 768)\n","      (LayerNorm): LayerNorm((768,), eps=1e-12, elementwise_affine=True)\n","      (dropout): Dropout(p=0.1, inplace=False)\n","    )\n","    (encoder): BertEncoder(\n","      (layer): ModuleList(\n","        (0-11): 12 x BertLayer(\n","          (attention): BertAttention(\n","            (self): BertSelfAttention(\n","              (query): Linear(in_features=768, out_features=768, bias=True)\n","              (key): Linear(in_features=768, out_features=768, bias=True)\n","              (value): Linear(in_features=768, out_features=768, bias=True)\n","              (dropout): Dropout(p=0.1, inplace=False)\n","            )\n","            (output): BertSelfOutput(\n","              (dense): Linear(in_features=768, out_features=768, bias=True)\n","              (LayerNorm): LayerNorm((768,), eps=1e-12, elementwise_affine=True)\n","              (dropout): Dropout(p=0.1, inplace=False)\n","            )\n","          )\n","          (intermediate): BertIntermediate(\n","            (dense): Linear(in_features=768, out_features=3072, bias=True)\n","            (intermediate_act_fn): GELUActivation()\n","          )\n","          (output): BertOutput(\n","            (dense): Linear(in_features=3072, out_features=768, bias=True)\n","            (LayerNorm): LayerNorm((768,), eps=1e-12, elementwise_affine=True)\n","            (dropout): Dropout(p=0.1, inplace=False)\n","          )\n","        )\n","      )\n","    )\n","    (pooler): BertPooler(\n","      (dense): Linear(in_features=768, out_features=768, bias=True)\n","      (activation): Tanh()\n","    )\n","  )\n","  (linear1): Linear(in_features=768, out_features=256, bias=True)\n","  (linear2): Linear(in_features=256, out_features=2, bias=True)\n",")"]},"metadata":{},"execution_count":13}]},{"cell_type":"code","source":["def loss_fn(output, target):\n","    return nn.BCEWithLogitsLoss()(output, target)\n","\n","optimizer = torch.optim.Adam(params=model.parameters(), lr=LEARNING_RATE)"],"metadata":{"id":"VsguGDmo8Sam","executionInfo":{"status":"ok","timestamp":1714825238746,"user_tz":-180,"elaps
…
